…
Error: logs_user1\loc_transfer_tensorboard - The system cannot find the path specified.
Model: "LocationEncoder"
__________________________________________________________________________________________________
Layer (type)                    Output Shape         Param #     Connected to                     
==================================================================================================
input_2 (InputLayer)            [(None, 7)]          0                                            
__________________________________________________________________________________________________
FeaturesLocBatch (BatchNormaliz (None, 7)            28          input_2[0][0]                    
__________________________________________________________________________________________________
FeaturesLocDense1 (Dense)       (None, 32)           256         FeaturesLocBatch[0][0]           
__________________________________________________________________________________________________
FeaturesLocBatch1 (BatchNormali (None, 32)           128         FeaturesLocDense1[0][0]          
__________________________________________________________________________________________________
input_1 (InputLayer)            [(None, 10, 3)]      0                                            
__________________________________________________________________________________________________
mask_relu (MaskRelu)            (None, 32)           0           FeaturesLocBatch1[0][0]          
__________________________________________________________________________________________________
maskLayer1 (Masking)            (None, 10, 3)        0           input_1[0][0]                    
__________________________________________________________________________________________________
dropout (Dropout)               (None, 32)           0           mask_relu[0][0]                  
__________________________________________________________________________________________________
SignalsLocBatch (BatchNormaliza (None, 10, 3)        12          maskLayer1[0][0]                 
__________________________________________________________________________________________________
FeaturesLocDense2 (Dense)       (None, 16)           528         dropout[0][0]                    
__________________________________________________________________________________________________
locLSTM1 (LSTM)                 (None, 10, 64)       17408       SignalsLocBatch[0][0]            
__________________________________________________________________________________________________
FeaturesLocBatch2 (BatchNormali (None, 16)           64          FeaturesLocDense2[0][0]          
__________________________________________________________________________________________________
locLSTM2 (LSTM)                 (None, 64)           33024       locLSTM1[0][0]                   
__________________________________________________________________________________________________
mask_relu_1 (MaskRelu)          (None, 16)           0           FeaturesLocBatch2[0][0]          
__________________________________________________________________________________________________
dropout_2 (Dropout)             (None, 64)           0           locLSTM2[0][0]                   
__________________________________________________________________________________________________
dropout_1 (Dropout)             (None, 16)           0           mask_relu_1[0][0]                
__________________________________________________________________________________________________
tf.concat (TFOpLambda)          (None, 80)           0           dropout_2[0][0]                  
                                                                 dropout_1[0][0]                  
__________________________________________________________________________________________________
locDense1 (Dense)               (None, 128)          10368       tf.concat[0][0]                  
__________________________________________________________________________________________________
locBatch1 (BatchNormalization)  (None, 128)          512         locDense1[0][0]                  
__________________________________________________________________________________________________
mask_relu_2 (MaskRelu)          (None, 128)          0           locBatch1[0][0]                  
__________________________________________________________________________________________________
dropout_3 (Dropout)             (None, 128)          0           mask_relu_2[0][0]                
__________________________________________________________________________________________________
locDense2 (Dense)               (None, 64)           8256        dropout_3[0][0]                  
__________________________________________________________________________________________________
locBatch2 (BatchNormalization)  (None, 64)           256         locDense2[0][0]                  
__________________________________________________________________________________________________
mask_relu_3 (MaskRelu)          (None, 64)           0           locBatch2[0][0]                  
__________________________________________________________________________________________________
dropout_4 (Dropout)             (None, 64)           0           mask_relu_3[0][0]                
__________________________________________________________________________________________________
locDense3 (Dense)               (None, 256)          16640       dropout_4[0][0]                  
__________________________________________________________________________________________________
locBatch3 (BatchNormalization)  (None, 256)          1024        locDense3[0][0]                  
__________________________________________________________________________________________________
mask_relu_4 (MaskRelu)          (None, 256)          0           locBatch3[0][0]                  
__________________________________________________________________________________________________
tf.math.equal (TFOpLambda)      (None, 7)            0           input_2[0][0]                    
__________________________________________________________________________________________________
dropout_5 (Dropout)             (None, 256)          0           mask_relu_4[0][0]                
__________________________________________________________________________________________________
tf.math.reduce_all (TFOpLambda) (None, 1)            0           tf.math.equal[0][0]              
__________________________________________________________________________________________________
tf.compat.v1.shape (TFOpLambda) (2,)                 0           tf.math.reduce_all[0][0]         
__________________________________________________________________________________________________
tf.zeros_like (TFOpLambda)      (None, 256)          0           dropout_5[0][0]                  
__________________________________________________________________________________________________
tf.concat_1 (TFOpLambda)        (2,)                 0           tf.compat.v1.shape[0][0]         
__________________________________________________________________________________________________
tf.compat.v1.shape_1 (TFOpLambd (2,)                 0           tf.zeros_like[0][0]              
…
