…
 'val_percentage': 0.4,
 'val_size': 2000}

Found Data
Model: "LocationEncoder"
__________________________________________________________________________________________________
Layer (type)                    Output Shape         Param #     Connected to                     
==================================================================================================
input_1 (InputLayer)            [(None, 10, 2)]      0                                            
__________________________________________________________________________________________________
maskLayer1 (Masking)            (None, 10, 2)        0           input_1[0][0]                    
__________________________________________________________________________________________________
locBatch (BatchNormalization)   (None, 10, 2)        8           maskLayer1[0][0]                 
__________________________________________________________________________________________________
locLSTM (LSTM)                  (None, 256)          265216      locBatch[0][0]                   
__________________________________________________________________________________________________
dropout (Dropout)               (None, 256)          0           locLSTM[0][0]                    
__________________________________________________________________________________________________
input_2 (InputLayer)            [(None, 5)]          0                                            
__________________________________________________________________________________________________
tf.concat (TFOpLambda)          (None, 261)          0           dropout[0][0]                    
                                                                 input_2[0][0]                    
__________________________________________________________________________________________________
locDense1 (Dense)               (None, 128)          33536       tf.concat[0][0]                  
__________________________________________________________________________________________________
locBatch1 (BatchNormalization)  (None, 128)          512         locDense1[0][0]                  
__________________________________________________________________________________________________
mask_relu (MaskRelu)            (None, 128)          0           locBatch1[0][0]                  
__________________________________________________________________________________________________
dropout_1 (Dropout)             (None, 128)          0           mask_relu[0][0]                  
__________________________________________________________________________________________________
locDense2 (Dense)               (None, 64)           8256        dropout_1[0][0]                  
__________________________________________________________________________________________________
locBatch2 (BatchNormalization)  (None, 64)           256         locDense2[0][0]                  
__________________________________________________________________________________________________
mask_relu_1 (MaskRelu)          (None, 64)           0           locBatch2[0][0]                  
__________________________________________________________________________________________________
dropout_2 (Dropout)             (None, 64)           0           mask_relu_1[0][0]                
__________________________________________________________________________________________________
locDense3 (Dense)               (None, 256)          16640       dropout_2[0][0]                  
__________________________________________________________________________________________________
locBatch3 (BatchNormalization)  (None, 256)          1024        locDense3[0][0]                  
__________________________________________________________________________________________________
mask_relu_2 (MaskRelu)          (None, 256)          0           locBatch3[0][0]                  
__________________________________________________________________________________________________
tf.math.equal (TFOpLambda)      (None, 5)            0           input_2[0][0]                    
__________________________________________________________________________________________________
dropout_3 (Dropout)             (None, 256)          0           mask_relu_2[0][0]                
__________________________________________________________________________________________________
tf.math.reduce_all (TFOpLambda) (None, 1)            0           tf.math.equal[0][0]              
__________________________________________________________________________________________________
tf.compat.v1.shape (TFOpLambda) (2,)                 0           tf.math.reduce_all[0][0]         
__________________________________________________________________________________________________
tf.zeros_like (TFOpLambda)      (None, 256)          0           dropout_3[0][0]                  
__________________________________________________________________________________________________
tf.concat_1 (TFOpLambda)        (2,)                 0           tf.compat.v1.shape[0][0]         
__________________________________________________________________________________________________
tf.compat.v1.shape_1 (TFOpLambd (2,)                 0           tf.zeros_like[0][0]              
…
s/step - loss: 1.0581 - categorical_accuracy: 0.6138
 - test_f1: 0.480868 - test_precision: 0.516659 - test_recall 0.490314
Error: logs_user1\MIL_tensorboard - The system cannot find the path specified.
Model: "AccelerationEncoder"
_________________________________________________________________
Layer (type)                 Output Shape              Param #   
=================================================================
input_3 (InputLayer)         [(None, 192, 48, 1)]      0         
_________________________________________________________________
accBatch1 (BatchNormalizatio (None, 192, 48, 1)        4         
_________________________________________________________________
zero_padding2d (ZeroPadding2 (None, 194, 50, 1)        0         
_________________________________________________________________
accConv1 (Conv2D)            (None, 192, 48, 16)       160       
_________________________________________________________________
re_lu (ReLU)                 (None, 192, 48, 16)       0         
_________________________________________________________________
max_pooling2d (MaxPooling2D) (None, 96, 24, 16)        0         
_________________________________________________________________
zero_padding2d_1 (ZeroPaddin (None, 98, 26, 16)        0         
_________________________________________________________________
accConv2 (Conv2D)            (None, 96, 24, 32)        4640      
_________________________________________________________________
re_lu_1 (ReLU)               (None, 96, 24, 32)        0         
_________________________________________________________________
max_pooling2d_1 (MaxPooling2 (None, 48, 12, 32)        0         
_________________________________________________________________
accConv3 (Conv2D)            (None, 46, 10, 64)        18496     
_________________________________________________________________
re_lu_2 (ReLU)               (None, 46, 10, 64)        0         
_________________________________________________________________
max_pooling2d_2 (MaxPooling2 (None, 23, 5, 64)         0         
_________________________________________________________________
flatten (Flatten)            (None, 7360)              0         
_________________________________________________________________
dropout_4 (Dropout)          (None, 7360)              0         
_________________________________________________________________
accDense1 (Dense)            (None, 128)               942208    
_________________________________________________________________
accBatch2 (BatchNormalizatio (None, 128)               512       
_________________________________________________________________
re_lu_3 (ReLU)               (None, 128)               0         
_________________________________________________________________
dropout_5 (Dropout)          (None, 128)               0         
_________________________________________________________________
accDense2 (Dense)            (None, 256)               33024     
_________________________________________________________________
accBatch3 (BatchNormalizatio (None, 256)               1024      
_________________________________________________________________
re_lu_4 (ReLU)               (None, 256)               0         
_________________________________________________________________
dropout_6 (Dropout)          (None, 256)               0         
=================================================================
Total params: 1,000,068
Trainable params: 999,298
Non-trainable params: 770
_________________________________________________________________
Model: "LocationEncoder"
__________________________________________________________________________________________________
Layer (type)                    Output Shape         Param #     Connected to                     
==================================================================================================
input_4 (InputLayer)            [(None, 10, 2)]      0                                            
__________________________________________________________________________________________________
maskLayer1 (Masking)            (None, 10, 2)        0           input_4[0][0]                    
__________________________________________________________________________________________________
locBatch (BatchNormalization)   (None, 10, 2)        8           maskLayer1[0][0]                 
__________________________________________________________________________________________________
locLSTM (LSTM)                  (None, 256)          265216      locBatch[0][0]                   
__________________________________________________________________________________________________
input_5 (InputLayer)            [(None, 5)]          0                                            
__________________________________________________________________________________________________
tf.concat_2 (TFOpLambda)        (None, 261)          0           locLSTM[0][0]                    
                                                                 input_5[0][0]                    
__________________________________________________________________________________________________
locDense1 (Dense)               (None, 128)          33536       tf.concat_2[0][0]                
__________________________________________________________________________________________________
locBatch1 (BatchNormalization)  (None, 128)          512         locDense1[0][0]                  
__________________________________________________________________________________________________
mask_relu_3 (MaskRelu)          (None, 128)          0           locBatch1[0][0]                  
__________________________________________________________________________________________________
locDense2 (Dense)               (None, 64)           8256        mask_relu_3[0][0]                
__________________________________________________________________________________________________
locBatch2 (BatchNormalization)  (None, 64)           256         locDense2[0][0]                  
__________________________________________________________________________________________________
mask_relu_4 (MaskRelu)          (None, 64)           0           locBatch2[0][0]                  
__________________________________________________________________________________________________
locDense3 (Dense)               (None, 256)          16640       mask_relu_4[0][0]                
__________________________________________________________________________________________________
locBatch3 (BatchNormalization)  (None, 256)          1024        locDense3[0][0]                  
__________________________________________________________________________________________________
tf.math.equal_1 (TFOpLambda)    (None, 5)            0           input_5[0][0]                    
__________________________________________________________________________________________________
mask_relu_5 (MaskRelu)          (None, 256)          0           locBatch3[0][0]                  
__________________________________________________________________________________________________
tf.math.reduce_all_1 (TFOpLambd (None, 1)            0           tf.math.equal_1[0][0]            
__________________________________________________________________________________________________
tf.compat.v1.shape_2 (TFOpLambd (2,)                 0           tf.math.reduce_all_1[0][0]       
__________________________________________________________________________________________________
tf.zeros_like_1 (TFOpLambda)    (None, 256)          0           mask_relu_5[0][0]                
__________________________________________________________________________________________________
tf.concat_3 (TFOpLambda)        (2,)                 0           tf.compat.v1.shape_2[0][0]       
__________________________________________________________________________________________________
tf.compat.v1.shape_3 (TFOpLambd (2,)                 0           tf.zeros_like_1[0][0]            
…
__________________________________________________________________________________________________
Model: "AttentionLayer"
__________________________________________________________________________________________________
Layer (type)                    Output Shape         Param #     Connected to                     
==================================================================================================
input_6 (InputLayer)            [(None, 256)]        0                                            
__________________________________________________________________________________________________
dense_1 (Dense)                 (None, 128)          32896       input_6[0][0]                    
__________________________________________________________________________________________________
dense_2 (Dense)                 (None, 128)          32896       input_6[0][0]                    
__________________________________________________________________________________________________
tf.math.multiply_2 (TFOpLambda) (None, 128)          0           dense_1[0][0]                    
                                                                 dense_2[0][0]                    
__________________________________________________________________________________________________
dense_3 (Dense)                 (None, 1)            129         tf.math.multiply_2[0][0]         
==================================================================================================
Total params: 65,921
Trainable params: 65,921
Non-trainable params: 0
__________________________________________________________________________________________________
Model: "Classifier"
_________________________________________________________________
Layer (type)                 Output Shape              Param #   
=================================================================
input_7 (InputLayer)         [(None, 256)]             0         
_________________________________________________________________
dense_4 (Dense)              (None, 128)               32896     
_________________________________________________________________
batch_normalization (BatchNo (None, 128)               512       
_________________________________________________________________
re_lu_5 (ReLU)               (None, 128)               0         
_________________________________________________________________
dense_5 (Dense)              (None, 8)                 1032      
=================================================================
Total params: 34,440
Trainable params: 34,184
Non-trainable params: 256
_________________________________________________________________
None
Epoch 1/80
 1/52 [..............................] - ETA: 26:26 - Loss: 9.1003 - Accuracy: 0.0625
…
