…
 'val_percentage': 0.4,
 'val_size': 2000}

Found Data
Model: "LocationEncoder"
__________________________________________________________________________________________________
Layer (type)                    Output Shape         Param #     Connected to                     
==================================================================================================
input_1 (InputLayer)            [(None, 10, 3)]      0                                            
__________________________________________________________________________________________________
maskLayer1 (Masking)            (None, 10, 3)        0           input_1[0][0]                    
__________________________________________________________________________________________________
locBatch (BatchNormalization)   (None, 10, 3)        12          maskLayer1[0][0]                 
__________________________________________________________________________________________________
locLSTM (LSTM)                  (None, 256)          266240      locBatch[0][0]                   
__________________________________________________________________________________________________
dropout (Dropout)               (None, 256)          0           locLSTM[0][0]                    
__________________________________________________________________________________________________
input_2 (InputLayer)            [(None, 7)]          0                                            
__________________________________________________________________________________________________
tf.concat (TFOpLambda)          (None, 263)          0           dropout[0][0]                    
                                                                 input_2[0][0]                    
__________________________________________________________________________________________________
locDense1 (Dense)               (None, 128)          33792       tf.concat[0][0]                  
__________________________________________________________________________________________________
locBatch1 (BatchNormalization)  (None, 128)          512         locDense1[0][0]                  
__________________________________________________________________________________________________
mask_relu (MaskRelu)            (None, 128)          0           locBatch1[0][0]                  
__________________________________________________________________________________________________
dropout_1 (Dropout)             (None, 128)          0           mask_relu[0][0]                  
__________________________________________________________________________________________________
locDense2 (Dense)               (None, 64)           8256        dropout_1[0][0]                  
__________________________________________________________________________________________________
locBatch2 (BatchNormalization)  (None, 64)           256         locDense2[0][0]                  
__________________________________________________________________________________________________
mask_relu_1 (MaskRelu)          (None, 64)           0           locBatch2[0][0]                  
__________________________________________________________________________________________________
dropout_2 (Dropout)             (None, 64)           0           mask_relu_1[0][0]                
__________________________________________________________________________________________________
locDense3 (Dense)               (None, 256)          16640       dropout_2[0][0]                  
__________________________________________________________________________________________________
locBatch3 (BatchNormalization)  (None, 256)          1024        locDense3[0][0]                  
__________________________________________________________________________________________________
mask_relu_2 (MaskRelu)          (None, 256)          0           locBatch3[0][0]                  
__________________________________________________________________________________________________
tf.math.equal (TFOpLambda)      (None, 7)            0           input_2[0][0]                    
__________________________________________________________________________________________________
dropout_3 (Dropout)             (None, 256)          0           mask_relu_2[0][0]                
__________________________________________________________________________________________________
tf.math.reduce_all (TFOpLambda) (None, 1)            0           tf.math.equal[0][0]              
__________________________________________________________________________________________________
tf.compat.v1.shape (TFOpLambda) (2,)                 0           tf.math.reduce_all[0][0]         
__________________________________________________________________________________________________
tf.zeros_like (TFOpLambda)      (None, 256)          0           dropout_3[0][0]                  
__________________________________________________________________________________________________
tf.concat_1 (TFOpLambda)        (2,)                 0           tf.compat.v1.shape[0][0]         
__________________________________________________________________________________________________
tf.compat.v1.shape_1 (TFOpLambd (2,)                 0           tf.zeros_like[0][0]              
…
67/67 [==============================] - 4s 32ms/step - loss: 1.0353 - categorical_accuracy: 0.5910
 - test_f1: 0.464348 - test_precision: 0.475104 - test_recall 0.467000
Model: "AccelerationEncoder"
_________________________________________________________________
Layer (type)                 Output Shape              Param #   
=================================================================
input_3 (InputLayer)         [(None, 192, 48, 1)]      0         
_________________________________________________________________
accBatch1 (BatchNormalizatio (None, 192, 48, 1)        4         
_________________________________________________________________
zero_padding2d (ZeroPadding2 (None, 194, 50, 1)        0         
_________________________________________________________________
accConv1 (Conv2D)            (None, 192, 48, 16)       160       
_________________________________________________________________
re_lu (ReLU)                 (None, 192, 48, 16)       0         
_________________________________________________________________
max_pooling2d (MaxPooling2D) (None, 96, 24, 16)        0         
_________________________________________________________________
zero_padding2d_1 (ZeroPaddin (None, 98, 26, 16)        0         
_________________________________________________________________
accConv2 (Conv2D)            (None, 96, 24, 32)        4640      
_________________________________________________________________
re_lu_1 (ReLU)               (None, 96, 24, 32)        0         
_________________________________________________________________
max_pooling2d_1 (MaxPooling2 (None, 48, 12, 32)        0         
_________________________________________________________________
accConv3 (Conv2D)            (None, 46, 10, 64)        18496     
_________________________________________________________________
re_lu_2 (ReLU)               (None, 46, 10, 64)        0         
_________________________________________________________________
