…
 'test_user': 1,
 'trainBatchSize': 32,
 'transfer_learning_acc': 'train',
 'transfer_learning_loc': 'none',
 'use_gated': True,
 'valBatchSize': 32,
 'val_percentage': 0.15,
 'val_size': 2000}

3 1 1
Found Data
Model: "AccelerationEncoder"
_________________________________________________________________
Layer (type)                 Output Shape              Param #   
=================================================================
input_1 (InputLayer)         [(None, 192, 48, 1)]      0         
_________________________________________________________________
accBatch1 (BatchNormalizatio (None, 192, 48, 1)        4         
_________________________________________________________________
zero_padding2d (ZeroPadding2 (None, 194, 50, 1)        0         
_________________________________________________________________
accConv1 (Conv2D)            (None, 192, 48, 16)       160       
_________________________________________________________________
accBatch2 (BatchNormalizatio (None, 192, 48, 16)       64        
_________________________________________________________________
re_lu (ReLU)                 (None, 192, 48, 16)       0         
_________________________________________________________________
max_pooling2d (MaxPooling2D) (None, 96, 24, 16)        0         
_________________________________________________________________
zero_padding2d_1 (ZeroPaddin (None, 98, 26, 16)        0         
_________________________________________________________________
accConv2 (Conv2D)            (None, 96, 24, 32)        4640      
_________________________________________________________________
accBatch3 (BatchNormalizatio (None, 96, 24, 32)        128       
_________________________________________________________________
re_lu_1 (ReLU)               (None, 96, 24, 32)        0         
_________________________________________________________________
max_pooling2d_1 (MaxPooling2 (None, 48, 12, 32)        0         
_________________________________________________________________
accConv3 (Conv2D)            (None, 46, 10, 64)        18496     
_________________________________________________________________
accBatch4 (BatchNormalizatio (None, 46, 10, 64)        256       
_________________________________________________________________
re_lu_2 (ReLU)               (None, 46, 10, 64)        0         
_________________________________________________________________
max_pooling2d_2 (MaxPooling2 (None, 23, 5, 64)         0         
_________________________________________________________________
flatten (Flatten)            (None, 7360)              0         
_________________________________________________________________
dropout (Dropout)            (None, 7360)              0         
_________________________________________________________________
accDense1 (Dense)            (None, 128)               942208    
_________________________________________________________________
accBatch5 (BatchNormalizatio (None, 128)               512       
_________________________________________________________________
re_lu_3 (ReLU)               (None, 128)               0         
_________________________________________________________________
dropout_1 (Dropout)          (None, 128)               0         
_________________________________________________________________
accDense2 (Dense)            (None, 256)               33024     
_________________________________________________________________
accBatch6 (BatchNormalizatio (None, 256)               1024      
_________________________________________________________________
re_lu_4 (ReLU)               (None, 256)               0         
_________________________________________________________________
dropout_2 (Dropout)          (None, 256)               0         
_________________________________________________________________
dense (Dense)                (None, 8)                 2056      
=================================================================
Total params: 1,002,572
Trainable params: 1,001,578
Non-trainable params: 994
_________________________________________________________________
None
Epoch 1/2
  1/258 [..............................] - ETA: 3:02:10 - loss: 2.8676 - categorical_accuracy: 0.0312
…
