…
 'val_percentage': 0.4,
 'val_size': 2000}

Found Data
Model: "LocationEncoder"
__________________________________________________________________________________________________
Layer (type)                    Output Shape         Param #     Connected to                     
==================================================================================================
input_1 (InputLayer)            [(None, 9, 4)]       0                                            
__________________________________________________________________________________________________
maskLayer1 (Masking)            (None, 9, 4)         0           input_1[0][0]                    
__________________________________________________________________________________________________
SignalsLocBatch (BatchNormaliza (None, 9, 4)         16          maskLayer1[0][0]                 
__________________________________________________________________________________________________
time_distributed (TimeDistribut (None, 9, 64)        320         SignalsLocBatch[0][0]            
__________________________________________________________________________________________________
TDlocBatch1 (BatchNormalization (None, 9, 64)        256         time_distributed[0][0]           
__________________________________________________________________________________________________
mask_relu (MaskRelu)            (None, 9, 64)        0           TDlocBatch1[0][0]                
__________________________________________________________________________________________________
time_distributed_1 (TimeDistrib (None, 9, 64)        4160        mask_relu[0][0]                  
__________________________________________________________________________________________________
TDlocBatch2 (BatchNormalization (None, 9, 64)        256         time_distributed_1[0][0]         
__________________________________________________________________________________________________
mask_relu_1 (MaskRelu)          (None, 9, 64)        0           TDlocBatch2[0][0]                
__________________________________________________________________________________________________
locLSTM1 (LSTM)                 (None, 9, 128)       98816       mask_relu_1[0][0]                
__________________________________________________________________________________________________
locLSTM2 (LSTM)                 (None, 128)          131584      locLSTM1[0][0]                   
__________________________________________________________________________________________________
dropout (Dropout)               (None, 128)          0           locLSTM2[0][0]                   
__________________________________________________________________________________________________
input_2 (InputLayer)            [(None, 9)]          0                                            
__________________________________________________________________________________________________
tf.concat (TFOpLambda)          (None, 137)          0           dropout[0][0]                    
                                                                 input_2[0][0]                    
__________________________________________________________________________________________________
locDense1 (Dense)               (None, 64)           8832        tf.concat[0][0]                  
__________________________________________________________________________________________________
locBatch1 (BatchNormalization)  (None, 64)           256         locDense1[0][0]                  
__________________________________________________________________________________________________
mask_relu_2 (MaskRelu)          (None, 64)           0           locBatch1[0][0]                  
__________________________________________________________________________________________________
dropout_1 (Dropout)             (None, 64)           0           mask_relu_2[0][0]                
__________________________________________________________________________________________________
locDense3 (Dense)               (None, 32)           2080        dropout_1[0][0]                  
__________________________________________________________________________________________________
locBatch3 (BatchNormalization)  (None, 32)           128         locDense3[0][0]                  
__________________________________________________________________________________________________
mask_relu_3 (MaskRelu)          (None, 32)           0           locBatch3[0][0]                  
__________________________________________________________________________________________________
tf.math.equal (TFOpLambda)      (None, 9)            0           input_2[0][0]                    
__________________________________________________________________________________________________
dropout_2 (Dropout)             (None, 32)           0           mask_relu_3[0][0]                
__________________________________________________________________________________________________
tf.math.reduce_all (TFOpLambda) (None, 1)            0           tf.math.equal[0][0]              
__________________________________________________________________________________________________
tf.compat.v1.shape (TFOpLambda) (2,)                 0           tf.math.reduce_all[0][0]         
__________________________________________________________________________________________________
tf.zeros_like (TFOpLambda)      (None, 32)           0           dropout_2[0][0]                  
__________________________________________________________________________________________________
tf.concat_1 (TFOpLambda)        (2,)                 0           tf.compat.v1.shape[0][0]         
__________________________________________________________________________________________________
tf.compat.v1.shape_1 (TFOpLambd (2,)                 0           tf.zeros_like[0][0]              
…
