…
 'test_user': 1,
 'trainBatchSize': 32,
 'transfer_learning_acc': 'train',
 'transfer_learning_loc': 'none',
 'use_gated': True,
 'valBatchSize': 32,
 'val_percentage': 0.15,
 'val_size': 2000}

1 1 1
Found Data
Model: "AccelerationEncoder"
_________________________________________________________________
Layer (type)                 Output Shape              Param #   
=================================================================
input_1 (InputLayer)         [(None, 192, 48, 1)]      0         
_________________________________________________________________
accBatch1 (BatchNormalizatio (None, 192, 48, 1)        4         
_________________________________________________________________
zero_padding2d (ZeroPadding2 (None, 194, 50, 1)        0         
_________________________________________________________________
accConv1 (Conv2D)            (None, 192, 48, 16)       160       
_________________________________________________________________
accBatch2 (BatchNormalizatio (None, 192, 48, 16)       64        
_________________________________________________________________
re_lu (ReLU)                 (None, 192, 48, 16)       0         
_________________________________________________________________
max_pooling2d (MaxPooling2D) (None, 96, 24, 16)        0         
_________________________________________________________________
zero_padding2d_1 (ZeroPaddin (None, 98, 26, 16)        0         
_________________________________________________________________
accConv2 (Conv2D)            (None, 96, 24, 32)        4640      
_________________________________________________________________