…
 'testBatchSize': 32,
 'test_user': 1,
 'trainBatchSize': 32,
 'transfer_learning_acc': 'none',
 'transfer_learning_loc': 'none',
 'use_gated': True,
 'valBatchSize': 32,
 'val_percentage': 0.15,
 'val_size': 2000}

Model: "AccelerationEncoder"
_________________________________________________________________
Layer (type)                 Output Shape              Param #   
=================================================================
input_1 (InputLayer)         [(None, 192, 48, 1)]      0         
_________________________________________________________________
accBatch1 (BatchNormalizatio (None, 192, 48, 1)        4         
_________________________________________________________________
zero_padding2d (ZeroPadding2 (None, 194, 50, 1)        0         
_________________________________________________________________
accConv1 (Conv2D)            (None, 192, 48, 16)       160       
_________________________________________________________________
re_lu (ReLU)                 (None, 192, 48, 16)       0         
_________________________________________________________________
max_pooling2d (MaxPooling2D) (None, 96, 24, 16)        0         
_________________________________________________________________
zero_padding2d_1 (ZeroPaddin (None, 98, 26, 16)        0         
_________________________________________________________________
accConv2 (Conv2D)            (None, 96, 24, 32)        4640      
_________________________________________________________________
re_lu_1 (ReLU)               (None, 96, 24, 32)        0         
_________________________________________________________________
max_pooling2d_1 (MaxPooling2 (None, 48, 12, 32)        0         
_________________________________________________________________
accConv3 (Conv2D)            (None, 46, 10, 64)        18496     
_________________________________________________________________
re_lu_2 (ReLU)               (None, 46, 10, 64)        0         
_________________________________________________________________
max_pooling2d_2 (MaxPooling2 (None, 23, 5, 64)         0         
_________________________________________________________________
flatten (Flatten)            (None, 7360)              0         
_________________________________________________________________
dropout (Dropout)            (None, 7360)              0         
_________________________________________________________________
accDense1 (Dense)            (None, 128)               942208    
_________________________________________________________________
accBatch2 (BatchNormalizatio (None, 128)               512       
_________________________________________________________________
re_lu_3 (ReLU)               (None, 128)               0         
_________________________________________________________________
dropout_1 (Dropout)          (None, 128)               0         
_________________________________________________________________
accDense2 (Dense)            (None, 256)               33024     
_________________________________________________________________
accBatch3 (BatchNormalizatio (None, 256)               1024      
_________________________________________________________________
re_lu_4 (ReLU)               (None, 256)               0         
_________________________________________________________________
dropout_2 (Dropout)          (None, 256)               0         
=================================================================
Total params: 1,000,068
Trainable params: 999,298
Non-trainable params: 770
_________________________________________________________________
Model: "LocationEncoder"
__________________________________________________________________________________________________
Layer (type)                    Output Shape         Param #     Connected to                     
==================================================================================================
input_2 (InputLayer)            [(None, 9, 4)]       0                                            
__________________________________________________________________________________________________
maskLayer1 (Masking)            (None, 9, 4)         0           input_2[0][0]                    
__________________________________________________________________________________________________
SignalsLocBatch (BatchNormaliza (None, 9, 4)         16          maskLayer1[0][0]                 
__________________________________________________________________________________________________
time_distributed (TimeDistribut (None, 9, 32)        160         SignalsLocBatch[0][0]            
__________________________________________________________________________________________________
TDlocBatch1 (BatchNormalization (None, 9, 32)        128         time_distributed[0][0]           
__________________________________________________________________________________________________
mask_relu (MaskRelu)            (None, 9, 32)        0           TDlocBatch1[0][0]                
__________________________________________________________________________________________________
dropout_3 (Dropout)             (None, 9, 32)        0           mask_relu[0][0]                  
__________________________________________________________________________________________________
time_distributed_1 (TimeDistrib (None, 9, 32)        1056        dropout_3[0][0]                  
__________________________________________________________________________________________________
TDlocBatch2 (BatchNormalization (None, 9, 32)        128         time_distributed_1[0][0]         
__________________________________________________________________________________________________
mask_relu_1 (MaskRelu)          (None, 9, 32)        0           TDlocBatch2[0][0]                
__________________________________________________________________________________________________
dropout_4 (Dropout)             (None, 9, 32)        0           mask_relu_1[0][0]                
__________________________________________________________________________________________________
locLSTM1 (LSTM)                 (None, 9, 64)        24832       dropout_4[0][0]                  
__________________________________________________________________________________________________
dropout_5 (Dropout)             (None, 9, 64)        0           locLSTM1[0][0]                   
__________________________________________________________________________________________________
locLSTM2 (LSTM)                 (None, 64)           33024       dropout_5[0][0]                  
__________________________________________________________________________________________________
dropout_6 (Dropout)             (None, 64)           0           locLSTM2[0][0]                   
__________________________________________________________________________________________________
input_3 (InputLayer)            [(None, 9)]          0                                            
__________________________________________________________________________________________________
tf.concat (TFOpLambda)          (None, 73)           0           dropout_6[0][0]                  
                                                                 input_3[0][0]                    
__________________________________________________________________________________________________
locDense1 (Dense)               (None, 128)          9472        tf.concat[0][0]                  
__________________________________________________________________________________________________
locBatch1 (BatchNormalization)  (None, 128)          512         locDense1[0][0]                  
__________________________________________________________________________________________________
mask_relu_2 (MaskRelu)          (None, 128)          0           locBatch1[0][0]                  
__________________________________________________________________________________________________
dropout_7 (Dropout)             (None, 128)          0           mask_relu_2[0][0]                
__________________________________________________________________________________________________
locDense2 (Dense)               (None, 64)           8256        dropout_7[0][0]                  
__________________________________________________________________________________________________
locBatch2 (BatchNormalization)  (None, 64)           256         locDense2[0][0]                  
__________________________________________________________________________________________________
mask_relu_3 (MaskRelu)          (None, 64)           0           locBatch2[0][0]                  
__________________________________________________________________________________________________
dropout_8 (Dropout)             (None, 64)           0           mask_relu_3[0][0]                
__________________________________________________________________________________________________
locDense3 (Dense)               (None, 256)          16640       dropout_8[0][0]                  
__________________________________________________________________________________________________
locBatch3 (BatchNormalization)  (None, 256)          1024        locDense3[0][0]                  
__________________________________________________________________________________________________
mask_relu_4 (MaskRelu)          (None, 256)          0           locBatch3[0][0]                  
__________________________________________________________________________________________________
tf.math.equal (TFOpLambda)      (None, 9)            0           input_3[0][0]                    
__________________________________________________________________________________________________
dropout_9 (Dropout)             (None, 256)          0           mask_relu_4[0][0]                
__________________________________________________________________________________________________
tf.math.reduce_all (TFOpLambda) (None, 1)            0           tf.math.equal[0][0]              
__________________________________________________________________________________________________
tf.compat.v1.shape (TFOpLambda) (2,)                 0           tf.math.reduce_all[0][0]         
__________________________________________________________________________________________________
tf.zeros_like (TFOpLambda)      (None, 256)          0           dropout_9[0][0]                  
__________________________________________________________________________________________________
tf.concat_1 (TFOpLambda)        (2,)                 0           tf.compat.v1.shape[0][0]         
__________________________________________________________________________________________________
tf.compat.v1.shape_1 (TFOpLambd (2,)                 0           tf.zeros_like[0][0]              
…
__________________________________________________________________________________________________
Model: "AttentionLayer"
__________________________________________________________________________________________________
Layer (type)                    Output Shape         Param #     Connected to                     
==================================================================================================
input_4 (InputLayer)            [(None, 256)]        0                                            
__________________________________________________________________________________________________
dense (Dense)                   (None, 128)          32896       input_4[0][0]                    
__________________________________________________________________________________________________
dense_1 (Dense)                 (None, 128)          32896       input_4[0][0]                    
__________________________________________________________________________________________________
tf.math.multiply_1 (TFOpLambda) (None, 128)          0           dense[0][0]                      
                                                                 dense_1[0][0]                    
__________________________________________________________________________________________________
dense_2 (Dense)                 (None, 1)            129         tf.math.multiply_1[0][0]         
==================================================================================================
Total params: 65,921
Trainable params: 65,921
Non-trainable params: 0
__________________________________________________________________________________________________
Model: "Classifier"
_________________________________________________________________
Layer (type)                 Output Shape              Param #   
=================================================================
input_5 (InputLayer)         [(None, 256)]             0         
_________________________________________________________________
dense_3 (Dense)              (None, 128)               32896     
_________________________________________________________________
batch_normalization (BatchNo (None, 128)               512       
_________________________________________________________________
re_lu_5 (ReLU)               (None, 128)               0         
_________________________________________________________________
dense_4 (Dense)              (None, 8)                 1032      
=================================================================
Total params: 34,440
Trainable params: 34,184
Non-trainable params: 256
_________________________________________________________________
None
Epoch 1/80
  1/191 [..............................] - ETA: 2:43:56 - Loss: 17.9662 - Accuracy: 0.1875
…
