…
 'test_user': 1,
 'trainBatchSize': 32,
 'transfer_learning_acc': 'train',
 'transfer_learning_loc': 'none',
 'use_gated': True,
 'valBatchSize': 32,
 'val_percentage': 0.15,
 'val_size': 2000}

3 1 1
Found Data
Model: "AccelerationEncoder"
_________________________________________________________________
Layer (type)                 Output Shape              Param #   
=================================================================
input_1 (InputLayer)         [(None, 192, 48, 1)]      0         
_________________________________________________________________
accBatch1 (BatchNormalizatio (None, 192, 48, 1)        4         
_________________________________________________________________
zero_padding2d (ZeroPadding2 (None, 194, 50, 1)        0         
_________________________________________________________________
accConv1 (Conv2D)            (None, 192, 48, 16)       160       
_________________________________________________________________
accBatch2 (BatchNormalizatio (None, 192, 48, 16)       64        
_________________________________________________________________
re_lu (ReLU)                 (None, 192, 48, 16)       0         
_________________________________________________________________
max_pooling2d (MaxPooling2D) (None, 96, 24, 16)        0         
_________________________________________________________________
zero_padding2d_1 (ZeroPaddin (None, 98, 26, 16)        0         
_________________________________________________________________
accConv2 (Conv2D)            (None, 96, 24, 32)        4640      
_________________________________________________________________
accBatch3 (BatchNormalizatio (None, 96, 24, 32)        128       
_________________________________________________________________
re_lu_1 (ReLU)               (None, 96, 24, 32)        0         
_________________________________________________________________
max_pooling2d_1 (MaxPooling2 (None, 48, 12, 32)        0         
_________________________________________________________________
accConv3 (Conv2D)            (None, 46, 10, 64)        18496     
_________________________________________________________________
accBatch4 (BatchNormalizatio (None, 46, 10, 64)        256       
_________________________________________________________________
re_lu_2 (ReLU)               (None, 46, 10, 64)        0         
_________________________________________________________________
max_pooling2d_2 (MaxPooling2 (None, 23, 5, 64)         0         
_________________________________________________________________
flatten (Flatten)            (None, 7360)              0         
_________________________________________________________________
dropout (Dropout)            (None, 7360)              0         
_________________________________________________________________
accDense1 (Dense)            (None, 128)               942208    
_________________________________________________________________
accBatch5 (BatchNormalizatio (None, 128)               512       
_________________________________________________________________
re_lu_3 (ReLU)               (None, 128)               0         
_________________________________________________________________
dropout_1 (Dropout)          (None, 128)               0         
_________________________________________________________________
accDense2 (Dense)            (None, 256)               33024     
_________________________________________________________________
accBatch6 (BatchNormalizatio (None, 256)               1024      
_________________________________________________________________
re_lu_4 (ReLU)               (None, 256)               0         
_________________________________________________________________
dropout_2 (Dropout)          (None, 256)               0         
_________________________________________________________________
dense (Dense)                (None, 8)                 2056      
=================================================================
Total params: 1,002,572
Trainable params: 1,001,578
Non-trainable params: 994
_________________________________________________________________
None
Epoch 1/2
  1/258 [..............................] - ETA: 2:17:10 - loss: 2.8905 - categorical_accuracy: 0.0625
…
125/125 [==============================] - 44s 270ms/step - loss: 1.4348 - categorical_accuracy: 0.4527
 - test_f1: 0.330526 - test_precision: 0.314896 - test_recall 0.392308
Model: "AccelerationEncoder"
_________________________________________________________________
Layer (type)                 Output Shape              Param #   
=================================================================
input_2 (InputLayer)         [(None, 192, 48, 1)]      0         
_________________________________________________________________
accBatch1 (BatchNormalizatio (None, 192, 48, 1)        4         
_________________________________________________________________
zero_padding2d_2 (ZeroPaddin (None, 194, 50, 1)        0         
_________________________________________________________________
accConv1 (Conv2D)            (None, 192, 48, 16)       160       
_________________________________________________________________
accBatch2 (BatchNormalizatio (None, 192, 48, 16)       64        
_________________________________________________________________
re_lu_5 (ReLU)               (None, 192, 48, 16)       0         
_________________________________________________________________
max_pooling2d_3 (MaxPooling2 (None, 96, 24, 16)        0         
_________________________________________________________________
zero_padding2d_3 (ZeroPaddin (None, 98, 26, 16)        0         
_________________________________________________________________
accConv2 (Conv2D)            (None, 96, 24, 32)        4640      
_________________________________________________________________
accBatch3 (BatchNormalizatio (None, 96, 24, 32)        128       
_________________________________________________________________
re_lu_6 (ReLU)               (None, 96, 24, 32)        0         
_________________________________________________________________
max_pooling2d_4 (MaxPooling2 (None, 48, 12, 32)        0         
_________________________________________________________________
accConv3 (Conv2D)            (None, 46, 10, 64)        18496     
_________________________________________________________________
accBatch4 (BatchNormalizatio (None, 46, 10, 64)        256       
_________________________________________________________________
re_lu_7 (ReLU)               (None, 46, 10, 64)        0         
_________________________________________________________________
max_pooling2d_5 (MaxPooling2 (None, 23, 5, 64)         0         
_________________________________________________________________
flatten_1 (Flatten)          (None, 7360)              0         
_________________________________________________________________
accDense1 (Dense)            (None, 128)               942208    
_________________________________________________________________
accBatch5 (BatchNormalizatio (None, 128)               512       
_________________________________________________________________
re_lu_8 (ReLU)               (None, 128)               0         
_________________________________________________________________
accDense2 (Dense)            (None, 256)               33024     
_________________________________________________________________
accBatch6 (BatchNormalizatio (None, 256)               1024      
_________________________________________________________________
re_lu_9 (ReLU)               (None, 256)               0         
=================================================================
Total params: 1,000,516
Trainable params: 0
Non-trainable params: 1,000,516
_________________________________________________________________
Model: "LocationEncoder"
__________________________________________________________________________________________________
Layer (type)                    Output Shape         Param #     Connected to                     
==================================================================================================
input_3 (InputLayer)            [(None, 10, 2)]      0                                            
__________________________________________________________________________________________________
maskLayer1 (Masking)            (None, 10, 2)        0           input_3[0][0]                    
__________________________________________________________________________________________________
locBatch (BatchNormalization)   (None, 10, 2)        8           maskLayer1[0][0]                 
__________________________________________________________________________________________________
locLSTM (LSTM)                  (None, 128)          67072       locBatch[0][0]                   
__________________________________________________________________________________________________
dropout_6 (Dropout)             (None, 128)          0           locLSTM[0][0]                    
__________________________________________________________________________________________________
input_4 (InputLayer)            [(None, 5)]          0                                            
__________________________________________________________________________________________________
tf.concat (TFOpLambda)          (None, 133)          0           dropout_6[0][0]                  
                                                                 input_4[0][0]                    
__________________________________________________________________________________________________
locDense1 (Dense)               (None, 128)          17152       tf.concat[0][0]                  
__________________________________________________________________________________________________
locBatch1 (BatchNormalization)  (None, 128)          512         locDense1[0][0]                  
__________________________________________________________________________________________________
mask_relu (MaskRelu)            (None, 128)          0           locBatch1[0][0]                  
__________________________________________________________________________________________________
