…
 'val_percentage': 0.4,
 'val_size': 2000}

Found Data
Model: "LocationEncoder"
__________________________________________________________________________________________________
Layer (type)                    Output Shape         Param #     Connected to                     
==================================================================================================
input_1 (InputLayer)            [(None, 9, 4)]       0                                            
__________________________________________________________________________________________________
maskLayer1 (Masking)            (None, 9, 4)         0           input_1[0][0]                    
__________________________________________________________________________________________________
SignalsLocBatch (BatchNormaliza (None, 9, 4)         16          maskLayer1[0][0]                 
__________________________________________________________________________________________________
time_distributed (TimeDistribut (None, 9, 32)        160         SignalsLocBatch[0][0]            
__________________________________________________________________________________________________
TDlocBatch1 (BatchNormalization (None, 9, 32)        128         time_distributed[0][0]           
__________________________________________________________________________________________________
mask_relu (MaskRelu)            (None, 9, 32)        0           TDlocBatch1[0][0]                
__________________________________________________________________________________________________
time_distributed_1 (TimeDistrib (None, 9, 32)        1056        mask_relu[0][0]                  
__________________________________________________________________________________________________
TDlocBatch2 (BatchNormalization (None, 9, 32)        128         time_distributed_1[0][0]         
__________________________________________________________________________________________________
mask_relu_1 (MaskRelu)          (None, 9, 32)        0           TDlocBatch2[0][0]                
__________________________________________________________________________________________________
locLSTM1 (LSTM)                 (None, 9, 64)        24832       mask_relu_1[0][0]                
__________________________________________________________________________________________________
locLSTM2 (LSTM)                 (None, 64)           33024       locLSTM1[0][0]                   
__________________________________________________________________________________________________
dropout (Dropout)               (None, 64)           0           locLSTM2[0][0]                   
__________________________________________________________________________________________________
input_2 (InputLayer)            [(None, 21)]         0                                            
__________________________________________________________________________________________________
tf.concat (TFOpLambda)          (None, 85)           0           dropout[0][0]                    
                                                                 input_2[0][0]                    
__________________________________________________________________________________________________
locDense1 (Dense)               (None, 128)          11008       tf.concat[0][0]                  
__________________________________________________________________________________________________
locBatch1 (BatchNormalization)  (None, 128)          512         locDense1[0][0]                  
__________________________________________________________________________________________________
mask_relu_2 (MaskRelu)          (None, 128)          0           locBatch1[0][0]                  
__________________________________________________________________________________________________
dropout_1 (Dropout)             (None, 128)          0           mask_relu_2[0][0]                
__________________________________________________________________________________________________
locDense2 (Dense)               (None, 64)           8256        dropout_1[0][0]                  
__________________________________________________________________________________________________
locBatch2 (BatchNormalization)  (None, 64)           256         locDense2[0][0]                  
__________________________________________________________________________________________________
mask_relu_3 (MaskRelu)          (None, 64)           0           locBatch2[0][0]                  
__________________________________________________________________________________________________
dropout_2 (Dropout)             (None, 64)           0           mask_relu_3[0][0]                
__________________________________________________________________________________________________
locDense3 (Dense)               (None, 256)          16640       dropout_2[0][0]                  
__________________________________________________________________________________________________
locBatch3 (BatchNormalization)  (None, 256)          1024        locDense3[0][0]                  
__________________________________________________________________________________________________
mask_relu_4 (MaskRelu)          (None, 256)          0           locBatch3[0][0]                  
__________________________________________________________________________________________________
tf.math.equal (TFOpLambda)      (None, 21)           0           input_2[0][0]                    
__________________________________________________________________________________________________
dropout_3 (Dropout)             (None, 256)          0           mask_relu_4[0][0]                
__________________________________________________________________________________________________
tf.math.reduce_all (TFOpLambda) (None, 1)            0           tf.math.equal[0][0]              
__________________________________________________________________________________________________
tf.compat.v1.shape (TFOpLambda) (2,)                 0           tf.math.reduce_all[0][0]         
__________________________________________________________________________________________________
tf.zeros_like (TFOpLambda)      (None, 256)          0           dropout_3[0][0]                  
__________________________________________________________________________________________________
tf.concat_1 (TFOpLambda)        (2,)                 0           tf.compat.v1.shape[0][0]         
__________________________________________________________________________________________________
tf.compat.v1.shape_1 (TFOpLambd (2,)                 0           tf.zeros_like[0][0]              
…
 'val_percentage': 0.4,
 'val_size': 2000}

Found Data
Model: "LocationEncoder"
__________________________________________________________________________________________________
Layer (type)                    Output Shape         Param #     Connected to                     
==================================================================================================
input_9 (InputLayer)            [(None, 9, 4)]       0                                            
__________________________________________________________________________________________________
maskLayer1 (Masking)            (None, 9, 4)         0           input_9[0][0]                    
__________________________________________________________________________________________________
SignalsLocBatch (BatchNormaliza (None, 9, 4)         16          maskLayer1[0][0]                 
__________________________________________________________________________________________________
time_distributed_8 (TimeDistrib (None, 9, 32)        160         SignalsLocBatch[0][0]            
__________________________________________________________________________________________________
TDlocBatch1 (BatchNormalization (None, 9, 32)        128         time_distributed_8[0][0]         
__________________________________________________________________________________________________
mask_relu_20 (MaskRelu)         (None, 9, 32)        0           TDlocBatch1[0][0]                
__________________________________________________________________________________________________
time_distributed_9 (TimeDistrib (None, 9, 32)        1056        mask_relu_20[0][0]               
__________________________________________________________________________________________________
TDlocBatch2 (BatchNormalization (None, 9, 32)        128         time_distributed_9[0][0]         
__________________________________________________________________________________________________
mask_relu_21 (MaskRelu)         (None, 9, 32)        0           TDlocBatch2[0][0]                
__________________________________________________________________________________________________
locLSTM1 (LSTM)                 (None, 9, 64)        24832       mask_relu_21[0][0]               
__________________________________________________________________________________________________
locLSTM2 (LSTM)                 (None, 64)           33024       locLSTM1[0][0]                   
__________________________________________________________________________________________________
dropout_16 (Dropout)            (None, 64)           0           locLSTM2[0][0]                   
__________________________________________________________________________________________________
input_10 (InputLayer)           [(None, 9)]          0                                            
__________________________________________________________________________________________________
tf.concat_8 (TFOpLambda)        (None, 73)           0           dropout_16[0][0]                 
                                                                 input_10[0][0]                   
__________________________________________________________________________________________________
locDense1 (Dense)               (None, 128)          9472        tf.concat_8[0][0]                
__________________________________________________________________________________________________
locBatch1 (BatchNormalization)  (None, 128)          512         locDense1[0][0]                  
__________________________________________________________________________________________________
mask_relu_22 (MaskRelu)         (None, 128)          0           locBatch1[0][0]                  
__________________________________________________________________________________________________
dropout_17 (Dropout)            (None, 128)          0           mask_relu_22[0][0]               
__________________________________________________________________________________________________
locDense2 (Dense)               (None, 64)           8256        dropout_17[0][0]                 
__________________________________________________________________________________________________
locBatch2 (BatchNormalization)  (None, 64)           256         locDense2[0][0]                  
__________________________________________________________________________________________________
mask_relu_23 (MaskRelu)         (None, 64)           0           locBatch2[0][0]                  
__________________________________________________________________________________________________
dropout_18 (Dropout)            (None, 64)           0           mask_relu_23[0][0]               
__________________________________________________________________________________________________
locDense3 (Dense)               (None, 256)          16640       dropout_18[0][0]                 
__________________________________________________________________________________________________
locBatch3 (BatchNormalization)  (None, 256)          1024        locDense3[0][0]                  
__________________________________________________________________________________________________
mask_relu_24 (MaskRelu)         (None, 256)          0           locBatch3[0][0]                  
__________________________________________________________________________________________________
tf.math.equal_4 (TFOpLambda)    (None, 9)            0           input_10[0][0]                   
__________________________________________________________________________________________________
dropout_19 (Dropout)            (None, 256)          0           mask_relu_24[0][0]               
__________________________________________________________________________________________________
tf.math.reduce_all_4 (TFOpLambd (None, 1)            0           tf.math.equal_4[0][0]            
__________________________________________________________________________________________________
tf.compat.v1.shape_8 (TFOpLambd (2,)                 0           tf.math.reduce_all_4[0][0]       
__________________________________________________________________________________________________
tf.zeros_like_4 (TFOpLambda)    (None, 256)          0           dropout_19[0][0]                 
__________________________________________________________________________________________________
tf.concat_9 (TFOpLambda)        (2,)                 0           tf.compat.v1.shape_8[0][0]       
__________________________________________________________________________________________________
tf.compat.v1.shape_9 (TFOpLambd (2,)                 0           tf.zeros_like_4[0][0]            
…
