…
 'val_size': 2000}

3 1 1
Found Data
Model: "AccelerationEncoder"
__________________________________________________________________________________________________
Layer (type)                    Output Shape         Param #     Connected to                     
==================================================================================================
input_1 (InputLayer)            [(None, 192, 48, 1)] 0                                            
__________________________________________________________________________________________________
Res1Batch1 (BatchNormalization) (None, 192, 48, 1)   4           input_1[0][0]                    
__________________________________________________________________________________________________
Res1Conv1 (Conv2D)              (None, 96, 24, 16)   160         Res1Batch1[0][0]                 
__________________________________________________________________________________________________
Res1Batch2 (BatchNormalization) (None, 96, 24, 16)   64          Res1Conv1[0][0]                  
__________________________________________________________________________________________________
re_lu (ReLU)                    (None, 96, 24, 16)   0           Res1Batch2[0][0]                 
__________________________________________________________________________________________________
Res1Conv2 (Conv2D)              (None, 96, 24, 16)   2320        re_lu[0][0]                      
__________________________________________________________________________________________________
Res1Batch3 (BatchNormalization) (None, 96, 24, 16)   64          Res1Conv2[0][0]                  
__________________________________________________________________________________________________
re_lu_1 (ReLU)                  (None, 96, 24, 16)   0           Res1Batch3[0][0]                 
__________________________________________________________________________________________________
Res1Conv3 (Conv2D)              (None, 96, 24, 16)   2320        re_lu_1[0][0]                    
__________________________________________________________________________________________________
Res1ConvIdentity (Conv2D)       (None, 96, 24, 16)   32          Res1Batch1[0][0]                 
__________________________________________________________________________________________________
Res1Batch4 (BatchNormalization) (None, 96, 24, 16)   64          Res1Conv3[0][0]                  
__________________________________________________________________________________________________
add (Add)                       (None, 96, 24, 16)   0           Res1ConvIdentity[0][0]           
                                                                 Res1Batch4[0][0]                 
__________________________________________________________________________________________________
re_lu_2 (ReLU)                  (None, 96, 24, 16)   0           add[0][0]                        
__________________________________________________________________________________________________
Res2Batch1 (BatchNormalization) (None, 96, 24, 16)   64          re_lu_2[0][0]                    
__________________________________________________________________________________________________
Res2Conv1 (Conv2D)              (None, 48, 12, 32)   4640        Res2Batch1[0][0]                 
__________________________________________________________________________________________________
Res2Batch2 (BatchNormalization) (None, 48, 12, 32)   128         Res2Conv1[0][0]                  
__________________________________________________________________________________________________
re_lu_3 (ReLU)                  (None, 48, 12, 32)   0           Res2Batch2[0][0]                 
__________________________________________________________________________________________________
Res2Conv2 (Conv2D)              (None, 48, 12, 32)   9248        re_lu_3[0][0]                    
__________________________________________________________________________________________________
Res2Batch3 (BatchNormalization) (None, 48, 12, 32)   128         Res2Conv2[0][0]                  
__________________________________________________________________________________________________
re_lu_4 (ReLU)                  (None, 48, 12, 32)   0           Res2Batch3[0][0]                 
__________________________________________________________________________________________________
Res2Conv3 (Conv2D)              (None, 48, 12, 32)   9248        re_lu_4[0][0]                    
__________________________________________________________________________________________________
Res2ConvIdentity (Conv2D)       (None, 48, 12, 32)   544         Res2Batch1[0][0]                 
__________________________________________________________________________________________________
Res2Batch4 (BatchNormalization) (None, 48, 12, 32)   128         Res2Conv3[0][0]                  
__________________________________________________________________________________________________
add_1 (Add)                     (None, 48, 12, 32)   0           Res2ConvIdentity[0][0]           
                                                                 Res2Batch4[0][0]                 
__________________________________________________________________________________________________
re_lu_5 (ReLU)                  (None, 48, 12, 32)   0           add_1[0][0]                      
__________________________________________________________________________________________________
Res3Batch1 (BatchNormalization) (None, 48, 12, 32)   128         re_lu_5[0][0]                    
__________________________________________________________________________________________________
Res3Conv1 (Conv2D)              (None, 24, 6, 64)    18496       Res3Batch1[0][0]                 
__________________________________________________________________________________________________
Res3Batch2 (BatchNormalization) (None, 24, 6, 64)    256         Res3Conv1[0][0]                  
__________________________________________________________________________________________________
re_lu_6 (ReLU)                  (None, 24, 6, 64)    0           Res3Batch2[0][0]                 
__________________________________________________________________________________________________
Res3Conv2 (Conv2D)              (None, 24, 6, 64)    36928       re_lu_6[0][0]                    
__________________________________________________________________________________________________
Res3Batch3 (BatchNormalization) (None, 24, 6, 64)    256         Res3Conv2[0][0]                  
__________________________________________________________________________________________________
re_lu_7 (ReLU)                  (None, 24, 6, 64)    0           Res3Batch3[0][0]                 
__________________________________________________________________________________________________
Res3Conv3 (Conv2D)              (None, 24, 6, 64)    36928       re_lu_7[0][0]                    
__________________________________________________________________________________________________
Res3ConvIdentity (Conv2D)       (None, 24, 6, 64)    2112        Res3Batch1[0][0]                 
__________________________________________________________________________________________________
Res3Batch4 (BatchNormalization) (None, 24, 6, 64)    256         Res3Conv3[0][0]                  
__________________________________________________________________________________________________
add_2 (Add)                     (None, 24, 6, 64)    0           Res3ConvIdentity[0][0]           
                                                                 Res3Batch4[0][0]                 
__________________________________________________________________________________________________
re_lu_8 (ReLU)                  (None, 24, 6, 64)    0           add_2[0][0]                      
__________________________________________________________________________________________________
Res4Batch1 (BatchNormalization) (None, 24, 6, 64)    256         re_lu_8[0][0]                    
__________________________________________________________________________________________________
Res4Conv1 (Conv2D)              (None, 12, 3, 128)   73856       Res4Batch1[0][0]                 
__________________________________________________________________________________________________
Res4Batch2 (BatchNormalization) (None, 12, 3, 128)   512         Res4Conv1[0][0]                  
__________________________________________________________________________________________________
re_lu_9 (ReLU)                  (None, 12, 3, 128)   0           Res4Batch2[0][0]                 
__________________________________________________________________________________________________
Res4Conv2 (Conv2D)              (None, 12, 3, 128)   147584      re_lu_9[0][0]                    
__________________________________________________________________________________________________
Res4Batch3 (BatchNormalization) (None, 12, 3, 128)   512         Res4Conv2[0][0]                  
__________________________________________________________________________________________________
re_lu_10 (ReLU)                 (None, 12, 3, 128)   0           Res4Batch3[0][0]                 
__________________________________________________________________________________________________
Res4Conv3 (Conv2D)              (None, 12, 3, 128)   147584      re_lu_10[0][0]                   
__________________________________________________________________________________________________
Res4ConvIdentity (Conv2D)       (None, 12, 3, 128)   8320        Res4Batch1[0][0]                 
__________________________________________________________________________________________________
Res4Batch4 (BatchNormalization) (None, 12, 3, 128)   512         Res4Conv3[0][0]                  
__________________________________________________________________________________________________
add_3 (Add)                     (None, 12, 3, 128)   0           Res4ConvIdentity[0][0]           
                                                                 Res4Batch4[0][0]                 
__________________________________________________________________________________________________
re_lu_11 (ReLU)                 (None, 12, 3, 128)   0           add_3[0][0]                      
__________________________________________________________________________________________________
flatten (Flatten)               (None, 4608)         0           re_lu_11[0][0]                   
__________________________________________________________________________________________________
dropout (Dropout)               (None, 4608)         0           flatten[0][0]                    
__________________________________________________________________________________________________
accDense1 (Dense)               (None, 256)          1179904     dropout[0][0]                    
__________________________________________________________________________________________________
re_lu_12 (ReLU)                 (None, 256)          0           accDense1[0][0]                  
__________________________________________________________________________________________________
dropout_1 (Dropout)             (None, 256)          0           re_lu_12[0][0]                   
__________________________________________________________________________________________________
accDense2 (Dense)               (None, 256)          65792       dropout_1[0][0]                  
__________________________________________________________________________________________________
re_lu_13 (ReLU)                 (None, 256)          0           accDense2[0][0]                  
__________________________________________________________________________________________________
dropout_2 (Dropout)             (None, 256)          0           re_lu_13[0][0]                   
__________________________________________________________________________________________________
dense (Dense)                   (None, 8)            2056        dropout_2[0][0]                  
==================================================================================================
Total params: 1,751,404
Trainable params: 1,749,738
Non-trainable params: 1,666
__________________________________________________________________________________________________
None
Epoch 1/160
  1/765 [..............................] - ETA: 6:44:5
…
